(7049, 96, 96, 1)
(7049, 30)
Model: "sequential"
_________________________________________________________________
 Layer (type)                Output Shape              Param #   
=================================================================
 conv2d (Conv2D)             (None, 96, 96, 32)        320       
                                                                 
 conv2d_1 (Conv2D)           (None, 96, 96, 32)        9248      
                                                                 
 batch_normalization (BatchN  (None, 96, 96, 32)       128       
 ormalization)                                                   
                                                                 
 max_pooling2d (MaxPooling2D  (None, 48, 48, 32)       0         
 )                                                               
                                                                 
 conv2d_2 (Conv2D)           (None, 48, 48, 64)        18496     
                                                                 
 conv2d_3 (Conv2D)           (None, 48, 48, 64)        36928     
                                                                 
 batch_normalization_1 (Batc  (None, 48, 48, 64)       256       
 hNormalization)                                                 
                                                                 
 max_pooling2d_1 (MaxPooling  (None, 24, 24, 64)       0         
 2D)                                                             
                                                                 
 conv2d_4 (Conv2D)           (None, 24, 24, 96)        55392     
                                                                 
 conv2d_5 (Conv2D)           (None, 24, 24, 96)        83040     
                                                                 
 batch_normalization_2 (Batc  (None, 24, 24, 96)       384       
 hNormalization)                                                 
                                                                 
 max_pooling2d_2 (MaxPooling  (None, 12, 12, 96)       0         
 2D)                                                             
                                                                 
 conv2d_6 (Conv2D)           (None, 12, 12, 128)       110720    
                                                                 
 conv2d_7 (Conv2D)           (None, 12, 12, 128)       147584    
                                                                 
 batch_normalization_3 (Batc  (None, 12, 12, 128)      512       
 hNormalization)                                                 
                                                                 
 max_pooling2d_3 (MaxPooling  (None, 6, 6, 128)        0         
 2D)                                                             
                                                                 
 conv2d_8 (Conv2D)           (None, 6, 6, 256)         295168    
                                                                 
 conv2d_9 (Conv2D)           (None, 6, 6, 256)         590080    
                                                                 
 batch_normalization_4 (Batc  (None, 6, 6, 256)        1024      
 hNormalization)                                                 
                                                                 
 max_pooling2d_4 (MaxPooling  (None, 3, 3, 256)        0         
 2D)                                                             
                                                                 
 conv2d_10 (Conv2D)          (None, 3, 3, 512)         1180160   
                                                                 
 conv2d_11 (Conv2D)          (None, 3, 3, 512)         2359808   
                                                                 
 batch_normalization_5 (Batc  (None, 3, 3, 512)        2048      
 hNormalization)                                                 
                                                                 
 flatten (Flatten)           (None, 4608)              0         
                                                                 
 dense (Dense)               (None, 512)               2359808   
                                                                 
 dropout (Dropout)           (None, 512)               0         
                                                                 
 dense_1 (Dense)             (None, 30)                15390     
                                                                 
=================================================================
Total params: 7,266,494
Trainable params: 7,264,318
Non-trainable params: 2,176
_________________________________________________________________

Initialization time: 18.273372173309326

Epoch 1/100
  1/100 [..............................] - ETA: 9:25 - loss: 
…
