(7049, 96, 96, 1)
(7049, 30)
Model: "sequential"
_________________________________________________________________
 Layer (type)                Output Shape              Param #   
=================================================================
 conv2d (Conv2D)             (None, 96, 96, 32)        288       
                                                                 
 leaky_re_lu (LeakyReLU)     (None, 96, 96, 32)        0         
                                                                 
 batch_normalization (BatchN  (None, 96, 96, 32)       128       
 ormalization)                                                   
                                                                 
 conv2d_1 (Conv2D)           (None, 96, 96, 32)        9216      
                                                                 
 leaky_re_lu_1 (LeakyReLU)   (None, 96, 96, 32)        0         
                                                                 
 batch_normalization_1 (Batc  (None, 96, 96, 32)       128       
 hNormalization)                                                 
                                                                 
 max_pooling2d (MaxPooling2D  (None, 48, 48, 32)       0         
 )                                                               
                                                                 
 conv2d_2 (Conv2D)           (None, 48, 48, 64)        18432     
                                                                 
 leaky_re_lu_2 (LeakyReLU)   (None, 48, 48, 64)        0         
                                                                 
 batch_normalization_2 (Batc  (None, 48, 48, 64)       256       
 hNormalization)                                                 
                                                                 
 conv2d_3 (Conv2D)           (None, 48, 48, 64)        36864     
                                                                 
 leaky_re_lu_3 (LeakyReLU)   (None, 48, 48, 64)        0         
                                                                 
 batch_normalization_3 (Batc  (None, 48, 48, 64)       256       
 hNormalization)                                                 
                                                                 
 max_pooling2d_1 (MaxPooling  (None, 24, 24, 64)       0         
 2D)                                                             
                                                                 
 conv2d_4 (Conv2D)           (None, 24, 24, 96)        55296     
                                                                 
 leaky_re_lu_4 (LeakyReLU)   (None, 24, 24, 96)        0         
                                                                 
 batch_normalization_4 (Batc  (None, 24, 24, 96)       384       
 hNormalization)                                                 
                                                                 
 conv2d_5 (Conv2D)           (None, 24, 24, 96)        82944     
                                                                 
 leaky_re_lu_5 (LeakyReLU)   (None, 24, 24, 96)        0         
                                                                 
 batch_normalization_5 (Batc  (None, 24, 24, 96)       384       
 hNormalization)                                                 
                                                                 
 max_pooling2d_2 (MaxPooling  (None, 12, 12, 96)       0         
 2D)                                                             
                                                                 
 conv2d_6 (Conv2D)           (None, 12, 12, 128)       110592    
                                                                 
 batch_normalization_6 (Batc  (None, 12, 12, 128)      512       
 hNormalization)                                                 
                                                                 
 leaky_re_lu_6 (LeakyReLU)   (None, 12, 12, 128)       0         
                                                                 
 batch_normalization_7 (Batc  (None, 12, 12, 128)      512       
 hNormalization)                                                 
                                                                 
 conv2d_7 (Conv2D)           (None, 12, 12, 128)       147456    
                                                                 
 leaky_re_lu_7 (LeakyReLU)   (None, 12, 12, 128)       0         
                                                                 
 batch_normalization_8 (Batc  (None, 12, 12, 128)      512       
 hNormalization)                                                 
                                                                 
 max_pooling2d_3 (MaxPooling  (None, 6, 6, 128)        0         
 2D)                                                             
                                                                 
 conv2d_8 (Conv2D)           (None, 6, 6, 256)         294912    
                                                                 
 leaky_re_lu_8 (LeakyReLU)   (None, 6, 6, 256)         0         
                                                                 
 batch_normalization_9 (Batc  (None, 6, 6, 256)        1024      
 hNormalization)                                                 
                                                                 
 conv2d_9 (Conv2D)           (None, 6, 6, 256)         589824    
                                                                 
 leaky_re_lu_9 (LeakyReLU)   (None, 6, 6, 256)         0         
                                                                 
 batch_normalization_10 (Bat  (None, 6, 6, 256)        1024      
 chNormalization)                                                
                                                                 
 max_pooling2d_4 (MaxPooling  (None, 3, 3, 256)        0         
 2D)                                                             
                                                                 
 conv2d_10 (Conv2D)          (None, 3, 3, 512)         1179648   
                                                                 
 leaky_re_lu_10 (LeakyReLU)  (None, 3, 3, 512)         0         
                                                                 
 batch_normalization_11 (Bat  (None, 3, 3, 512)        2048      
 chNormalization)                                                
                                                                 
 conv2d_11 (Conv2D)          (None, 3, 3, 512)         2359296   
                                                                 
 leaky_re_lu_11 (LeakyReLU)  (None, 3, 3, 512)         0         
                                                                 
 batch_normalization_12 (Bat  (None, 3, 3, 512)        2048      
 chNormalization)                                                
                                                                 
 flatten (Flatten)           (None, 4608)              0         
                                                                 
 dense (Dense)               (None, 512)               2359808   
                                                                 
 dropout (Dropout)           (None, 512)               0         
                                                                 
 dense_1 (Dense)             (None, 30)                15390     
                                                                 
=================================================================
Total params: 7,269,182
Trainable params: 7,264,574
Non-trainable params: 4,608
_________________________________________________________________

Initialization time: 21.206096172332764

Epoch 1/150
 1/50 [..............................] - ETA: 3:36 - loss: 26
…
